Assignment2/assignment2_submission_optimal_weights.npy (npy, 848 bytes, 1 tensors)

array f8 [90]
0.32453248406018004 -0.16868864935350228 -0.09368923388396105 -0.08950502209652118 0.026253155985504588 -0.19606553823470946 0.07755937062061365 -0.04248726036568797
-0.03339643044901525 -0.017278658447190388 -0.012083734277150019 -0.05644229826884362 0.04304417259558972 0.09520576372039245 -0.003928204986895735 0.06316763699357904
0.030387715795926792 0.023400805052851463 0.053291973581485325 0.10616145744087184 0.01384804794292131 0.05841990504709166 0.05566509405542445 0.008936335565879576
0.05172535237398623 -0.0001737428205769915 0.0354974744205768 -0.003126254206515057 0.005575751593168076 0.007415739992096179 -0.04051396400985208 -0.0028338748503955813
-0.05611671653644202 0.03226929550828612 -0.023440550794780322 -0.05069182086624948 -0.04165932185226383 0.05265386132981417 0.05443656826256926 -0.05049242526327159
-0.11698180607295035 -0.004486320386274976 -0.026245583442600022 -0.021726167850287255 0.012972183671943712 -0.0477935989766166 0.03849673864678458 -0.026130082596698245
-0.024004183661035898 -0.027786835298762132 -0.006103833290100768 -0.022878846344917395 0.029912310720646255 -0.01962837105768756 -0.014883567618766622 0.003639108926473047
-0.06259931579931205 0.018798409239986456 -0.04620760731151333 -0.036994293751182156 -0.015504759514435515 -0.029863517054519676 -0.10726283681065332 0.012661311728538658
-0.028504133697766495 -0.010398815351155758 0.003475483497308371 0.026305363098806787 -0.04946864147885122 0.02558566347661441 -0.030677105583993773 -0.017326237118730724
0.03659343640124135 0.05083553351578089 0.018787849285255325 -0.022085032083212452 -0.00583744647620386 -0.05132550663376769 -0.04259797614360826 -0.000991923681129726
-0.010173411607524536 0.035242709325529274 0.06406334102344673 0.042988570939816104 0.04802349032727691 -0.07390269698571915 0.03100929593301427 -0.08381889493917097
-0.002996915541274948 -0.02959124367375413
00000000: a1cc 61e5 23c5 d43f 8900 17f4 9697 c5bf
00000010: 24d7 8483 04fc b7bf 0d79 bb16 cde9 b6bf
00000020: 7e84 7f79 1be2 9a3f 8a9c 4bf1 ac18 c9bf
00000030: 5d5a 5050 eeda b33f 33d7 88e3 e3c0 a5bf
00000040: 39cf 2941 5619 a1bf 2d39 cc23 7fb1 91bf
00000050: 7574 455c 5bbf 88bf 51fd 5942 01e6 acbf
00000060: 26b2 29c3 e209 a63f afdd 91a9 675f b83f
00000070: 8e12 367f 0517 70bf d592 0d17 c12b b03f
00000080: 1cb2 2c16 f51d 9f3f deb7 9b71 61f6 973f
00000090: f4f2 57e7 1549 ab3f b3e2 cdb3 652d bb3f
000000a0: 96ee 3988 5d5c 8c3f b8b1 39bb 36e9 ad3f
000000b0: 255e fe9c 2280 ac3f 7c24 03a8 364d 823f
000000c0: 8004 a4d1 be7b aa3f d01a ef76 d7c5 26bf
000000d0: ec35 7497 b92c a23f 504d 6ef2 3a9c 69bf
000000e0: 3276 e46b 99d6 763f d6f8 dd8b f75f 7e3f
000000f0: f042 e80c 3fbe a4bf 5280 b5f9 1037 67bf
00000100: 01db 908c 54bb acbf 3900 bfe1 9985 a03f
00000110: f656 41bc cc00 98bf a328 9741 47f4 a9bf
00000120: 5ea7 dbe1 5e54 a5bf 1cdf d668 72f5 aa3f
00000130: 70d5 c920 1cdf ab3f d227 67a6 24da a9bf
00000140: 2d72 4f07 85f2 bdbf a434 6a75 3f60 72bf
00000150: ae9d 334a 1fe0 9abf a29d 8971 623f 96bf
00000160: ab95 0705 2991 8a3f 2e1b 2011 6778 a8bf
00000170: cd2f fb32 d8b5 a33f a044 c728 d8c1 9abf
00000180: 8e51 2a7f 8d94 98bf 9f57 78f3 2674 9cbf
00000190: 738d c745 5500 79bf 3459 4963 8d6d 97bf
000001a0: 3eff 2b31 55a1 9e3f e2ea 10af 7519 94bf
000001b0: 78fe 5ca1 467b 8ebf 52d1 6cba c3cf 6d3f
000001c0: 5c2a 1c3e 8206 b0bf 463a 9ce3 e33f 933f
000001d0: b46e 7504 86a8 a7bf 5492 9983 eaf0 a2bf
000001e0: 78f0 5f98 f5c0 8fbf d1ec 5eb4 8a94 9ebf
000001f0: 8a8d 2dc8 9375 bbbf 3266 637e 2cee 893f
00000200: ff80 2108 3030 9dbf d587 cd5e f94b 85bf
00000210: 93e4 adfe 9d78 6c3f f607 e008 cbef 9a3f
00000220: e18e a82a f453 a9bf e49a 83cf 2033 9a3f
00000230: ee73 e0b4 d169 9fbf 2398 2617 f8bd 91bf
00000240: 90e4 2ef9 5fbc a23f 6698 d973 1d07 aa3f
00000250: 3b2a f838 1f3d 933f 4331 1d6a 759d 96bf
00000260: ebb2 519b 01e9 77bf c3a4 e238 5647 aabf
00000270: 6e3e d3e4 66cf a5bf 382f 51f1 6d40 50bf
00000280: 17ff 2431 ccd5 84bf 8b7f f317 550b a23f
00000290: 7b75 9182 7466 b03f 3e9a 9314 9902 a63f
000002a0: 5d75 caf0 8896 a83f f7cd a382 49eb b2bf
000002b0: 20fc 9d9f e6c0 9f3f 12f4 8cb4 2775 b5bf
000002c0: 6905 a3c7 fc8c 68bf 2995 4ebf 2a4d 9ebf
