Assignment2/assignment2_submission_optimal_weights.npy (npy, 848 bytes, 1 tensors)

array f8 [90]
00000000: 3bdd e082 7dd0 d43f ab94 add6 3c6b c5bf
00000010: 1e5d 1400 c990 b5bf c574 78c1 5e8a b6bf
00000020: 7d33 0d44 c3fd 983f 808a a679 755a c8bf
00000030: ae75 26ef 721d b03f 7ad5 af54 68c7 aabf
00000040: 0715 d64e 6d92 a1bf 3ea9 1967 cece 85bf
00000050: 43a3 577b 533c 8bbf 22dd 5009 e474 b0bf
00000060: dca9 9a38 ed5b a53f 1823 aec9 6c9c b53f
00000070: 8bd2 d418 6aac 6dbf f663 5726 ff15 b33f
00000080: 4f8b 0b18 552a a33f 137a 259d 9094 973f
00000090: d21f 3074 4f3e a83f 01b8 5d5a 8c4b bc3f
000000a0: bbe4 e797 4528 8e3f e158 7553 366f b03f
000000b0: 9b9d 082c 0e92 ab3f 9888 3be9 ed85 3c3f
000000c0: 62e0 e67c 44af aa3f aa2b e989 19dd 603f
000000d0: e325 a67e 5041 9e3f 931e e588 22e7 85bf
000000e0: 0065 fead 4f26 86bf 7fde 1124 db5a 7f3f
000000f0: 188b 7426 cd3d a3bf 003a 921d c1cb 373f
00000100: 7d15 5cda a460 abbf cdb8 4cb0 11d2 9d3f
00000110: 9055 469b 2ca9 87bf 35e5 dec8 3049 aabf
00000120: ccf5 c86b c0c2 a0bf 6d59 8d7d 76c2 a33f
00000130: 6e0e a049 12ec a83f 9bce 369a 9042 a4bf
00000140: 5345 7ba9 c1cb bebf fd00 26ec 6375 63bf
00000150: 72ae 4c44 1be9 96bf 9a5c 4cdf 4513 8ebf
00000160: e989 d4de c535 8b3f ffb5 10e3 3a87 a7bf
00000170: 5ddb 0400 e2f7 a23f 9bc9 89c5 6752 9abf
00000180: 99c5 3b04 710f 97bf fba3 1afb 4099 91bf
00000190: c127 906d 97b8 7e3f 0fc2 2ffd a3f4 95bf
000001a0: 5aa5 9ab5 fde2 a63f 2b27 9d1e c642 98bf
000001b0: eea1 8df5 e98d 73bf 227c 2754 7a65 773f
000001c0: 8565 e781 0295 a8bf 041f eb13 ee90 903f
000001d0: ec14 b8a3 ed89 b0bf 611a b0ab 31cc a4bf
000001e0: d674 d9d4 5c0a 84bf 17d3 0915 8d65 a0bf
000001f0: 765d 0962 4d6c bebf 6727 be43 b893 913f
00000200: 1894 6e97 523f 9dbf 50a2 0d92 e807 92bf
00000210: 9550 0dad 5230 77bf cc57 b3a3 b3eb 8d3f
00000220: 8fcb 0980 edfb a7bf 6a00 7a93 c7e2 973f
00000230: 9046 9a0e 6884 9dbf fd57 4752 6396 90bf
00000240: 90a7 e242 7a6c 9f3f 2edf 1149 66fe a53f
00000250: 0c8c 4d7b d9bc a03f edba 2915 f8f1 80bf
00000260: b475 4b73 a448 86bf ba22 e57a c47f a7bf
00000270: 767c 8732 48bc a1bf 65a9 5732 ee70 483f
00000280: 7d95 bb00 e21f 7cbf 7d69 f711 72a2 9a3f
00000290: fe7f 7a7f 64f8 a83f 8996 e50e e497 a03f
000002a0: 6bc0 e21c 1d95 ad3f f100 99b2 f5f0 b2bf
000002b0: 03b4 c7f5 7aae a13f 1d06 4566 482a b5bf
000002c0: 6883 6723 97e1 50bf 95b0 035b af32 99bf
0.3252252367123735 -0.16733513338400505 -0.08424049617712057 -0.08804886077310232 0.024405528095758456 -0.19026058616607955 0.06294935549381961 -0.0523026088120941
-0.034320274232451146 -0.010648357888574208 -0.013298656655892699 -0.06428361155927978 0.04171696964234048 0.08441810535272187 -0.003622252674768516 0.07455439268177586
0.03743234556693286 0.023027667609648427 0.04735039037046786 0.1105277748699507 0.014725249956415323 0.06419696366842544 0.05384868896026803 0.00043522890449144416
0.052118435141381494 0.0020585535815249205 0.029546029787104088 -0.010694761088088789 -0.01081526040779801 0.007655006426936616 -0.03758088201927573 0.00036309685453597695
-0.05347170987628667 0.0291216625075144 -0.011553143013581374 -0.05133964969668129 -0.032735837132786466 0.038593008829297705 0.04867608212228168 -0.03957034952636925
-0.12029657733662207 -0.002375312005085671 -0.02237360576979914 -0.01468519771292014 0.013286157477129872 -0.04595359823029454 0.037047445776287026 -0.02570497649362267
-0.022519842036620472 -0.01718617947213728 0.007500258937406857 -0.02144104225948423 0.04470055429312465 -0.023692222231409914 -0.0047740115195229315 0.005712011190978779
-0.048011854512604514 0.016177864042020054 -0.06460461852119054 -0.04062037678527442 -0.009785390134477028 -0.03202477342430237 -0.11884006160231828 0.01716506875485582
-0.028561869137451706 -0.01760829345167486 -0.005661318734230166 0.014609721596951085 -0.046843931083365146 0.023326032997374936 -0.02882540310981213 -0.016198684594051816
0.030687246639594046 0.04295653955426669 0.032690807630182034 -0.008274019380420461 -0.010880741852299682 -0.04589666366752483 -0.034639602821464985 0.0007458842343884107
-0.0068663433300789585 0.026010305735192574 0.04877008491644118 0.0324088352379422 0.05777827241524921 -0.07398925409598058 0.034534304144337134 -0.08267643448655133
-0.0010303474388068893 -0.024607410364226274
